…
/home/jndx/STRAGGLER/mono-cnn-pytorch-main/FedMono/../models/layers/monoconv.py:54: UserWarning: To copy construct from a tensor, it is recommended to use sourceTensor.clone().detach() or sourceTensor.clone().detach().requires_grad_(True), rather than torch.tensor(sourceTensor).
  'mono_exponent', torch.tensor(#mono_exponent被注册为模型的一部分，但不会作为可训练的参数进行优化，生成的m个滤波器都在这。
/home/jndx/STRAGGLER/mono-cnn-pytorch-main/FedMono/..
method:avg, seed:2, model:resnet18, cifar100:False, onebyone:True,teacher:None
==> Preparing data..
Files already downloaded and verified
Files already downloaded and verified
==> Building model..
MonomialResNet(
  (conv1): Conv2d(3, 64, kernel_size=(3, 3), stride=(1, 1), padding=(1, 1), bias=False)
  (bn1): BatchNorm2d(64, eps=1e-05, momentum=0.1, affine=True, track_running_stats=True)
  (layer1): Sequential(
    (0): MonomialBasicBlock(
      (conv1): ShieldMonomialConv2d(64, 2, kernel_size=(3, 3), stride=(1, 1), padding=(1, 1), bias=False, num_terms=5, range=(1, 10), fanout_factor=32, mono_bias=False, 1x1_conv=False)
      (bn1): BatchNorm2d(64, eps=1e-05, momentum=0.1, affine=True, track_running_stats=True)
      (conv2): ShieldMonomialConv2d(64, 2, kernel_size=(3, 3), stride=(1, 1), padding=(1, 1), bias=False, num_terms=5, range=(1, 10), fanout_factor=32, mono_bias=False, 1x1_conv=False)
      (bn2): BatchNorm2d(64, eps=1e-05, momentum=0.1, affine=True, track_running_stats=True)
      (shortcut): Sequential()
    )
    (1): MonomialBasicBlock(
      (conv1): ShieldMonomialConv2d(64, 2, kernel_size=(3, 3), stride=(1, 1), padding=(1, 1), bias=False, num_terms=5, range=(1, 10), fanout_factor=32, mono_bias=False, 1x1_conv=False)
      (bn1): BatchNorm2d(64, eps=1e-05, momentum=0.1, affine=True, track_running_stats=True)
      (conv2): ShieldMonomialConv2d(64, 2, kernel_size=(3, 3), stride=(1, 1), padding=(1, 1), bias=False, num_terms=5, range=(1, 10), fanout_factor=32, mono_bias=False, 1x1_conv=False)
      (bn2): BatchNorm2d(64, eps=1e-05, momentum=0.1, affine=True, track_running_stats=True)
      (shortcut): Sequential()
    )
  )
  (layer2): Sequential(
    (0): MonomialBasicBlock(
      (conv1): Conv2d(64, 128, kernel_size=(3, 3), stride=(2, 2), padding=(1, 1), bias=False)
      (bn1): BatchNorm2d(128, eps=1e-05, momentum=0.1, affine=True, track_running_stats=True)
      (conv2): ShieldMonomialConv2d(128, 2, kernel_size=(3, 3), stride=(1, 1), padding=(1, 1), bias=False, num_terms=5, range=(1, 10), fanout_factor=64, mono_bias=False, 1x1_conv=False)
      (bn2): BatchNorm2d(128, eps=1e-05, momentum=0.1, affine=True, track_running_stats=True)
      (shortcut): Sequential(
        (0): Conv2d(64, 128, kernel_size=(1, 1), stride=(2, 2), bias=False)
        (1): BatchNorm2d(128, eps=1e-05, momentum=0.1, affine=True, track_running_stats=True)
      )
    )
    (1): MonomialBasicBlock(
      (conv1): ShieldMonomialConv2d(128, 2, kernel_size=(3, 3), stride=(1, 1), padding=(1, 1), bias=False, num_terms=5, range=(1, 10), fanout_factor=64, mono_bias=False, 1x1_conv=False)
      (bn1): BatchNorm2d(128, eps=1e-05, momentum=0.1, affine=True, track_running_stats=True)
      (conv2): ShieldMonomialConv2d(128, 2, kernel_size=(3, 3), stride=(1, 1), padding=(1, 1), bias=False, num_terms=5, range=(1, 10), fanout_factor=64, mono_bias=False, 1x1_conv=False)
      (bn2): BatchNorm2d(128, eps=1e-05, momentum=0.1, affine=True, track_running_stats=True)
      (shortcut): Sequential()
    )
  )
  (layer3): Sequential(
    (0): MonomialBasicBlock(
      (conv1): Conv2d(128, 256, kernel_size=(3, 3), stride=(2, 2), padding=(1, 1), bias=False)
      (bn1): BatchNorm2d(256, eps=1e-05, momentum=0.1, affine=True, track_running_stats=True)
      (conv2): ShieldMonomialConv2d(256, 2, kernel_size=(3, 3), stride=(1, 1), padding=(1, 1), bias=False, num_terms=5, range=(1, 10), fanout_factor=128, mono_bias=False, 1x1_conv=False)
      (bn2): BatchNorm2d(256, eps=1e-05, momentum=0.1, affine=True, track_running_stats=True)
      (shortcut): Sequential(
        (0): Conv2d(128, 256, kernel_size=(1, 1), stride=(2, 2), bias=False)
        (1): BatchNorm2d(256, eps=1e-05, momentum=0.1, affine=True, track_running_stats=True)
      )
    )
    (1): MonomialBasicBlock(
      (conv1): ShieldMonomialConv2d(256, 2, kernel_size=(3, 3), stride=(1, 1), padding=(1, 1), bias=False, num_terms=5, range=(1, 10), fanout_factor=128, mono_bias=False, 1x1_conv=False)
      (bn1): BatchNorm2d(256, eps=1e-05, momentum=0.1, affine=True, track_running_stats=True)
      (conv2): ShieldMonomialConv2d(256, 2, kernel_size=(3, 3), stride=(1, 1), padding=(1, 1), bias=False, num_terms=5, range=(1, 10), fanout_factor=128, mono_bias=False, 1x1_conv=False)
      (bn2): BatchNorm2d(256, eps=1e-05, momentum=0.1, affine=True, track_running_stats=True)
      (shortcut): Sequential()
    )
  )
  (layer4): Sequential(
    (0): MonomialBasicBlock(
      (conv1): Conv2d(256, 512, kernel_size=(3, 3), stride=(2, 2), padding=(1, 1), bias=False)
      (bn1): BatchNorm2d(512, eps=1e-05, momentum=0.1, affine=True, track_running_stats=True)
      (conv2): ShieldMonomialConv2d(512, 2, kernel_size=(3, 3), stride=(1, 1), padding=(1, 1), bias=False, num_terms=5, range=(1, 10), fanout_factor=256, mono_bias=False, 1x1_conv=False)
      (bn2): BatchNorm2d(512, eps=1e-05, momentum=0.1, affine=True, track_running_stats=True)
      (shortcut): Sequential(
        (0): Conv2d(256, 512, kernel_size=(1, 1), stride=(2, 2), bias=False)
        (1): BatchNorm2d(512, eps=1e-05, momentum=0.1, affine=True, track_running_stats=True)
      )
    )
    (1): MonomialBasicBlock(
      (conv1): ShieldMonomialConv2d(512, 2, kernel_size=(3, 3), stride=(1, 1), padding=(1, 1), bias=False, num_terms=5, range=(1, 10), fanout_factor=256, mono_bias=False, 1x1_conv=False)
      (bn1): BatchNorm2d(512, eps=1e-05, momentum=0.1, affine=True, track_running_stats=True)
      (conv2): ShieldMonomialConv2d(512, 2, kernel_size=(3, 3), stride=(1, 1), padding=(1, 1), bias=False, num_terms=5, range=(1, 10), fanout_factor=256, mono_bias=False, 1x1_conv=False)
      (bn2): BatchNorm2d(512, eps=1e-05, momentum=0.1, affine=True, track_running_stats=True)
      (shortcut): Sequential()
    )
  )
  (linear): Linear(in_features=512, out_features=10, bias=True)
)
layer4.0: 1323008
layer3.0: 333824
layer2.0: 84992
1.conv1: 17280
layer4.1: 10240
linear: 5130
layer3.1: 5120
layer1.0: 2560
layer2.1: 2560
1.bn1: 1920
layer1.1: 1280
Epoch:0
0
Train Loss: 2.428 | Acc: 13.281 (17/128)
Train Loss: 1.736 | Acc: 34.771 (8946/25728)
Train Loss: 1.306 | Acc: 57.031 (73/128)
Train Loss: 1.194 | Acc: 57.008 (14667/25728)
1
Train Loss: 2.429 | Acc: 13.281 (17/128)
…
