…
/home/jndx/STRAGGLER/mono-cnn-pytorch-main/FedMono/../models/layers/monoconv.py:54: UserWarning: To copy construct from a tensor, it is recommended to use sourceTensor.clone().detach() or sourceTensor.clone().detach().requires_grad_(True), rather than torch.tensor(sourceTensor).
  'mono_exponent', torch.tensor(#mono_exponent被注册为模型的一部分，但不会作为可训练的参数进行优化，生成的m个滤波器都在这。
/home/jndx/STRAGGLER/mono-cnn-pytorch-main/FedMono/..
method:slice, seed:16, model:resnet18, variant:mono, cifar100:False, onebyone:True,checkpoint,resnet18_mono_seed16_cifar10_onebyone.pthteacher:None
==> Preparing data..
Files already downloaded and verified
Files already downloaded and verified
==> Building model..
MonomialResNet(
  (conv1): Conv2d(3, 64, kernel_size=(3, 3), stride=(1, 1), padding=(1, 1), bias=False)
  (bn1): BatchNorm2d(64, eps=1e-05, momentum=0.1, affine=True, track_running_stats=True)
  (layer1): Sequential(
    (0): MonomialBasicBlock(
      (conv1): ShieldMonomialConv2d(
        64, 16, kernel_size=(3, 3), stride=(1, 1), padding=(1, 1), bias=False, num_terms=5, range=(1, 10), fanout_factor=4, mono_bias=False, 1x1_conv=True
        (gn): GroupNorm(16, 64, eps=1e-05, affine=True)
        (act): ReLU(inplace=True)
        (onebyone): Conv2d(64, 64, kernel_size=(1, 1), stride=(1, 1), bias=False)
      )
      (bn1): BatchNorm2d(64, eps=1e-05, momentum=0.1, affine=True, track_running_stats=True)
      (conv2): ShieldMonomialConv2d(
        64, 16, kernel_size=(3, 3), stride=(1, 1), padding=(1, 1), bias=False, num_terms=5, range=(1, 10), fanout_factor=4, mono_bias=False, 1x1_conv=True
        (gn): GroupNorm(16, 64, eps=1e-05, affine=True)
        (act): ReLU(inplace=True)
        (onebyone): Conv2d(64, 64, kernel_size=(1, 1), stride=(1, 1), bias=False)
      )
      (bn2): BatchNorm2d(64, eps=1e-05, momentum=0.1, affine=True, track_running_stats=True)
      (shortcut): Sequential()
    )
    (1): MonomialBasicBlock(
      (conv1): ShieldMonomialConv2d(
        64, 16, kernel_size=(3, 3), stride=(1, 1), padding=(1, 1), bias=False, num_terms=5, range=(1, 10), fanout_factor=4, mono_bias=False, 1x1_conv=True
        (gn): GroupNorm(16, 64, eps=1e-05, affine=True)
        (act): ReLU(inplace=True)
        (onebyone): Conv2d(64, 64, kernel_size=(1, 1), stride=(1, 1), bias=False)
      )
      (bn1): BatchNorm2d(64, eps=1e-05, momentum=0.1, affine=True, track_running_stats=True)
      (conv2): ShieldMonomialConv2d(
        64, 16, kernel_size=(3, 3), stride=(1, 1), padding=(1, 1), bias=False, num_terms=5, range=(1, 10), fanout_factor=4, mono_bias=False, 1x1_conv=True
        (gn): GroupNorm(16, 64, eps=1e-05, affine=True)
        (act): ReLU(inplace=True)
        (onebyone): Conv2d(64, 64, kernel_size=(1, 1), stride=(1, 1), bias=False)
      )
      (bn2): BatchNorm2d(64, eps=1e-05, momentum=0.1, affine=True, track_running_stats=True)
      (shortcut): Sequential()
    )
  )
  (layer2): Sequential(
    (0): MonomialBasicBlock(
      (conv1): Conv2d(64, 128, kernel_size=(3, 3), stride=(2, 2), padding=(1, 1), bias=False)
      (bn1): BatchNorm2d(128, eps=1e-05, momentum=0.1, affine=True, track_running_stats=True)
      (conv2): ShieldMonomialConv2d(
        128, 16, kernel_size=(3, 3), stride=(1, 1), padding=(1, 1), bias=False, num_terms=5, range=(1, 10), fanout_factor=8, mono_bias=False, 1x1_conv=True
        (gn): GroupNorm(16, 128, eps=1e-05, affine=True)
        (act): ReLU(inplace=True)
        (onebyone): Conv2d(128, 128, kernel_size=(1, 1), stride=(1, 1), bias=False)
      )
      (bn2): BatchNorm2d(128, eps=1e-05, momentum=0.1, affine=True, track_running_stats=True)
      (shortcut): Sequential(
        (0): Conv2d(64, 128, kernel_size=(1, 1), stride=(2, 2), bias=False)
        (1): BatchNorm2d(128, eps=1e-05, momentum=0.1, affine=True, track_running_stats=True)
      )
    )
    (1): MonomialBasicBlock(
      (conv1): ShieldMonomialConv2d(
        128, 16, kernel_size=(3, 3), stride=(1, 1), padding=(1, 1), bias=False, num_terms=5, range=(1, 10), fanout_factor=8, mono_bias=False, 1x1_conv=True
        (gn): GroupNorm(16, 128, eps=1e-05, affine=True)
        (act): ReLU(inplace=True)
        (onebyone): Conv2d(128, 128, kernel_size=(1, 1), stride=(1, 1), bias=False)
      )
      (bn1): BatchNorm2d(128, eps=1e-05, momentum=0.1, affine=True, track_running_stats=True)
      (conv2): ShieldMonomialConv2d(
        128, 16, kernel_size=(3, 3), stride=(1, 1), padding=(1, 1), bias=False, num_terms=5, range=(1, 10), fanout_factor=8, mono_bias=False, 1x1_conv=True
        (gn): GroupNorm(16, 128, eps=1e-05, affine=True)
        (act): ReLU(inplace=True)
        (onebyone): Conv2d(128, 128, kernel_size=(1, 1), stride=(1, 1), bias=False)
      )
      (bn2): BatchNorm2d(128, eps=1e-05, momentum=0.1, affine=True, track_running_stats=True)
      (shortcut): Sequential()
    )
  )
  (layer3): Sequential(
    (0): MonomialBasicBlock(
      (conv1): Conv2d(128, 256, kernel_size=(3, 3), stride=(2, 2), padding=(1, 1), bias=False)
      (bn1): BatchNorm2d(256, eps=1e-05, momentum=0.1, affine=True, track_running_stats=True)
      (conv2): ShieldMonomialConv2d(
        256, 16, kernel_size=(3, 3), stride=(1, 1), padding=(1, 1), bias=False, num_terms=5, range=(1, 10), fanout_factor=16, mono_bias=False, 1x1_conv=True
        (gn): GroupNorm(16, 256, eps=1e-05, affine=True)
        (act): ReLU(inplace=True)
        (onebyone): Conv2d(256, 256, kernel_size=(1, 1), stride=(1, 1), bias=False)
      )
      (bn2): BatchNorm2d(256, eps=1e-05, momentum=0.1, affine=True, track_running_stats=True)
      (shortcut): Sequential(
        (0): Conv2d(128, 256, kernel_size=(1, 1), stride=(2, 2), bias=False)
        (1): BatchNorm2d(256, eps=1e-05, momentum=0.1, affine=True, track_running_stats=True)
      )
    )
    (1): MonomialBasicBlock(
      (conv1): ShieldMonomialConv2d(
        256, 16, kernel_size=(3, 3), stride=(1, 1), padding=(1, 1), bias=False, num_terms=5, range=(1, 10), fanout_factor=16, mono_bias=False, 1x1_conv=True
        (gn): GroupNorm(16, 256, eps=1e-05, affine=True)
        (act): ReLU(inplace=True)
        (onebyone): Conv2d(256, 256, kernel_size=(1, 1), stride=(1, 1), bias=False)
      )
      (bn1): BatchNorm2d(256, eps=1e-05, momentum=0.1, affine=True, track_running_stats=True)
      (conv2): ShieldMonomialConv2d(
        256, 16, kernel_size=(3, 3), stride=(1, 1), padding=(1, 1), bias=False, num_terms=5, range=(1, 10), fanout_factor=16, mono_bias=False, 1x1_conv=True
        (gn): GroupNorm(16, 256, eps=1e-05, affine=True)
        (act): ReLU(inplace=True)
        (onebyone): Conv2d(256, 256, kernel_size=(1, 1), stride=(1, 1), bias=False)
      )
      (bn2): BatchNorm2d(256, eps=1e-05, momentum=0.1, affine=True, track_running_stats=True)
      (shortcut): Sequential()
    )
  )
  (layer4): Sequential(
    (0): MonomialBasicBlock(
      (conv1): Conv2d(256, 512, kernel_size=(3, 3), stride=(2, 2), padding=(1, 1), bias=False)
      (bn1): BatchNorm2d(512, eps=1e-05, momentum=0.1, affine=True, track_running_stats=True)
      (conv2): ShieldMonomialConv2d(
        512, 16, kernel_size=(3, 3), stride=(1, 1), padding=(1, 1), bias=False, num_terms=5, range=(1, 10), fanout_factor=32, mono_bias=False, 1x1_conv=True
        (gn): GroupNorm(16, 512, eps=1e-05, affine=True)
        (act): ReLU(inplace=True)
        (onebyone): Conv2d(512, 512, kernel_size=(1, 1), stride=(1, 1), bias=False)
      )
      (bn2): BatchNorm2d(512, eps=1e-05, momentum=0.1, affine=True, track_running_stats=True)
      (shortcut): Sequential(
        (0): Conv2d(256, 512, kernel_size=(1, 1), stride=(2, 2), bias=False)
        (1): BatchNorm2d(512, eps=1e-05, momentum=0.1, affine=True, track_running_stats=True)
      )
    )
    (1): MonomialBasicBlock(
      (conv1): ShieldMonomialConv2d(
        512, 16, kernel_size=(3, 3), stride=(1, 1), padding=(1, 1), bias=False, num_terms=5, range=(1, 10), fanout_factor=32, mono_bias=False, 1x1_conv=True
        (gn): GroupNorm(16, 512, eps=1e-05, affine=True)
        (act): ReLU(inplace=True)
        (onebyone): Conv2d(512, 512, kernel_size=(1, 1), stride=(1, 1), bias=False)
      )
      (bn1): BatchNorm2d(512, eps=1e-05, momentum=0.1, affine=True, track_running_stats=True)
      (conv2): ShieldMonomialConv2d(
        512, 16, kernel_size=(3, 3), stride=(1, 1), padding=(1, 1), bias=False, num_terms=5, range=(1, 10), fanout_factor=32, mono_bias=False, 1x1_conv=True
        (gn): GroupNorm(16, 512, eps=1e-05, affine=True)
        (act): ReLU(inplace=True)
        (onebyone): Conv2d(512, 512, kernel_size=(1, 1), stride=(1, 1), bias=False)
      )
      (bn2): BatchNorm2d(512, eps=1e-05, momentum=0.1, affine=True, track_running_stats=True)
      (shortcut): Sequential()
    )
  )
  (linear): Linear(in_features=512, out_features=10, bias=True)
)
layer4.0: 1650688
1.conv1: 488320
layer3.0: 432128
layer4.1: 337920
layer2.0: 117760
layer3.1: 103424
layer2.1: 35328
layer1.0: 27136
layer1.1: 13568
linear: 5130
1.bn1: 1920
Epoch:0
0
Train Loss: 1.262 | Acc: 54.202 (27101/50000)
Train Loss: 1.124 | Acc: 59.266 (29633/50000)
layer4.0
memory:0,dict_size:6615064 bytes
1
Train Loss: 1.234 | Acc: 55.292 (27646/50000)
…
